data/angrymen/processed/data_0.pt (torch, 5765 bytes, 3 tensors)

x f4 [83, 1]
00000000: c6dc 753f d93d f93e 5396 413f 696f 703e
00000010: 1b0d 403f c3d3 ab3e 8d28 cd3e 645d fc3e
00000020: 228e 753f ab3e 373f ffb2 0b3f 2063 6e3f
00000030: 4703 383f bf7d 7d3f f90f 093f 5bd3 3c3e
00000040: de93 473e 45d8 603f 7424 973e 4a7b a33e
00000050: b29d cf3e 1b0d 203f f2d2 4d3f b4c8 463f
00000060: f931 c63e c898 5b3f 32e6 ae3e 2bf6 373f
00000070: 4c37 a93e 58a8 153f a4df 7e3e 40a4 df3d
00000080: 4182 a23e 9be6 bd3e a9a4 0e3f 933a c13e
00000090: f706 3f3f 789c 423f 516b 0a3f 091b 2e3f
000000a0: f7e4 013f 42cf 263e 2bf6 173f 287e 3c3f
000000b0: 5530 ea3e c58f 013f 71ac 7b3f 0681 b53e
000000c0: abcf d53d fca9 613f 98dd 233f d734 2f3f
000000d0: aeb6 023f 3333 533f 54e3 353f 5bb1 4f3f
000000e0: aaf1 423f 89d2 3e3f 6900 ef3e 7ffb 5a3f
000000f0: 2063 ae3e cf66 353f 91ed fc3e cdcc 0c3f
00000100: 6210 283f d93d 793f 9f3c 6c3e 4f1e f63e
00000110: 7cf2 303f 2575 123f cac3 223f 840d ef3e
00000120: c3d3 0b3f 08ac 4c3f b3ea d33e 7593 283f
00000130: c442 cd3e 9fab 6d3f 226c 283f 3a92 ab3e
00000140: 9d80 863e 54e3 c53e 575b 313e
0.9604 0.4868 0.7562 0.2348 0.7502 0.3356 0.4007 0.4929
0.9592 0.7158 0.5457 0.9312 0.7188 0.9902 0.5354 0.1844
0.1949 0.8783 0.2952 0.3193 0.4055 0.6252 0.804 0.7765
0.3871 0.8578 0.3416 0.7186 0.3305 0.5846 0.2489 0.1092
0.3174 0.3709 0.5572 0.3774 0.7462 0.7602 0.5407 0.6801
0.5074 0.1629 0.5936 0.7363 0.4574 0.5061 0.9831 0.3545
0.1044 0.8815 0.6401 0.6844 0.5106 0.825 0.7105 0.8113
0.7615 0.7454 0.4668 0.8554 0.3406 0.7086 0.494 0.55
0.6565 0.9736 0.2307 0.4807 0.6912 0.5721 0.6358 0.4669
0.5462 0.7995 0.4139 0.6585 0.4009 0.9284 0.6579 0.3351
0.2627 0.3865 0.1732

y f4 [83]
00000000: bb27 cf3e 4b59 e63e af25 143f 696f 703e
00000010: 1b0d 403f f2b0 503e f90f c93e c1a8 a43c
00000020: 228e 753f c05b 303f 7502 1a3d 2063 6e3f
00000030: 77be 7f3f 2d21 7f3f f931 263f 48e1 7a3e
00000040: 992a 983d c976 1e3f 7424 973e ee5a 423e
00000050: b29d cf3e 3b70 0e3f 1c7c e13d 91ed 5c3f
00000060: f931 c63e f706 5f3e 6900 3f3f 5249 1d3f
00000070: e17a 143e 5bb1 0f3f 0ad7 233d e3c7 983d
00000080: 4182 a23e 0f9c 533f ba6b 393f 933a c13e
00000090: 74b5 553f 58ca b23e 516b 0a3f d122 5b3d
000000a0: 006f 013f 96b2 0c3e 8941 203e 287e 3c3f
000000b0: 1ac0 1b3e 5839 b43b a835 7d3f 7d3f b53e
000000c0: c364 aa3a e8d9 7c3f 9487 653f f46c 363f
000000d0: ebe2 b63d 3333 533f 5986 983e 4faf 143f
000000e0: aaf1 423f 89d2 3e3f 6900 ef3e 516b 2a3f
000000f0: 8a1f 633e 05a3 b23e a1f8 013f 1b2f dd3c
00000100: 2f6e 733f cc5d 5b3f b459 f53d 4f1e f63e
00000110: b22e 5e3f 2575 123f 4d84 ad3e 840d ef3e
00000120: 7ffb 0a3f b1bf 2c3f 82e2 c73b 9f3c 7c3f
00000130: 8104 753f 9fab 6d3f e5f2 df3e 3a92 ab3e
00000140: 2d21 ff3e 9ca2 a33e 575b 313e
0.4046 0.4499 0.5787 0.2348 0.7502 0.2038 0.3927 0.0201
0.9592 0.6889 0.0376 0.9312 0.999 0.9966 0.6492 0.245
0.0743 0.619 0.2952 0.1898 0.4055 0.5564 0.1101 0.863
0.3871 0.2178 0.7461 0.6144 0.145 0.5613 0.04 0.0746
0.3174 0.8266 0.7243 0.3774 0.8348 0.3492 0.5407 0.0535
0.5056 0.1374 0.1565 0.7363 0.1521 0.0055 0.9891 0.354
0.0013 0.9877 0.8966 0.7126 0.0893 0.825 0.2979 0.5808
0.7615 0.7454 0.4668 0.6657 0.2218 0.3489 0.5077 0.027
0.9509 0.8569 0.1198 0.4807 0.8679 0.5721 0.3389 0.4669
0.5429 0.6748 0.0061 0.9853 0.9571 0.9284 0.4374 0.3351
0.4983 0.3196 0.1732

edge_weight f4 [80, 1]
00000000: 0000 80bf 0000 80bf 0000 80bf 0000 803f
00000010: 0000 80bf 0000 80bf 0000 80bf 0000 80bf
00000020: 0000 80bf 0000 80bf 0000 80bf 0000 80bf
00000030: 0000 803f 0000 803f 0000 803f 0000 803f
00000040: 0000 80bf 0000 80bf 0000 80bf 0000 80bf
00000050: 0000 80bf 0000 80bf 0000 80bf 0000 803f
00000060: 0000 803f 0000 80bf 0000 803f 0000 80bf
00000070: 0000 80bf 0000 80bf 0000 80bf 0000 80bf
00000080: 0000 80bf 0000 803f 0000 803f 0000 80bf
00000090: 0000 803f 0000 80bf 0000 80bf 0000 80bf
000000a0: 0000 80bf 0000 80bf 0000 80bf 0000 80bf
000000b0: 0000 80bf 0000 803f 0000 80bf 0000 80bf
000000c0: 0000 803f 0000 803f 0000 803f 0000 80bf
000000d0: 0000 80bf 0000 80bf 0000 803f 0000 80bf
000000e0: 0000 803f 0000 80bf 0000 80bf 0000 80bf
000000f0: 0000 80bf 0000 803f 0000 80bf 0000 803f
00000100: 0000 80bf 0000 80bf 0000 80bf 0000 803f
00000110: 0000 80bf 0000 80bf 0000 803f 0000 80bf
00000120: 0000 80bf 0000 803f 0000 803f 0000 803f
00000130: 0000 80bf 0000 80bf 0000 803f 0000 80bf
-1.0 -1.0 -1.0 1.0 -1.0 -1.0 -1.0 -1.0
-1.0 -1.0 -1.0 -1.0 1.0 1.0 1.0 1.0
-1.0 -1.0 -1.0 -1.0 -1.0 -1.0 -1.0 1.0
1.0 -1.0 1.0 -1.0 -1.0 -1.0 -1.0 -1.0
-1.0 1.0 1.0 -1.0 1.0 -1.0 -1.0 -1.0
-1.0 -1.0 -1.0 -1.0 -1.0 1.0 -1.0 -1.0
1.0 1.0 1.0 -1.0 -1.0 -1.0 1.0 -1.0
1.0 -1.0 -1.0 -1.0 -1.0 1.0 -1.0 1.0
-1.0 -1.0 -1.0 1.0 -1.0 -1.0 1.0 -1.0
-1.0 1.0 1.0 1.0 -1.0 -1.0 1.0 -1.0
