data/debatepedia/processed/data_2.pt (torch, 12997 bytes, 3 tensors)

x f4 [284, 1]
0	0x3ec94467	0.3931
1	0x3f4a8588	0.7911
2	0x3c271de7	0.0102
3	0x3e887fcc	0.2666
4	0x3f64af4f	0.8933
5	0x3f731f8a	0.9497
6	0x3f78a090	0.9712
7	0x3e92b021	0.2865
8	0x3ed013a9	0.4064
9	0x3e8e48e9	0.2779
10	0x3dc56d5d	0.0964
11	0x3f590ff9	0.8479
12	0x3f7eb852	0.995
13	0x3eafb7e9	0.3432
14	0x3f104817	0.5636
15	0x3f3b923a	0.7327
16	0x3e14fdf4	0.1455
17	0x3f64ea4b	0.8942
18	0x3eb97247	0.3622
19	0x3bef34d7	0.0073
20	0x3e850481	0.2598
21	0x3f369ad4	0.7133
22	0x3e06a7f0	0.1315
23	0x3b2a64c3	0.0026
24	0x3e276c8b	0.1635
25	0x3f4374bc	0.7635
26	0x3e0b7803	0.1362
27	0x3f45dcc6	0.7729
28	0x3f3295ea	0.6976
29	0x3f636e2f	0.8884
30	0x3f4902de	0.7852
31	0x3c84b5dd	0.0162
32	0x3f59999a	0.85
33	0x3d875f70	0.0661
34	0x3caf4f0e	0.0214
35	0x3f6c56d6	0.9232
36	0x3c872b02	0.0165
37	0x3efc5048	0.4928
38	0x3f668db9	0.9006
39	0x3eda786c	0.4267
40	0x3e86f694	0.2636
41	0x3ca71de7	0.0204
42	0x3f0da512	0.5533
43	0x3e219653	0.1578
44	0x3cc08312	0.0235
45	0x3f594af5	0.8488
46	0x3f7edfa4	0.9956
47	0x3ddfa440	0.1092
48	0x3d26b50b	0.0407
49	0x3f673eab	0.9033
50	0x3f34c2f8	0.7061
51	0x3f63a29c	0.8892
52	0x3f70ff97	0.9414
53	0x3ea4ea4b	0.3221
54	0x3eb52546	0.3538
55	0x3f6d844d	0.9278
56	0x3f59e83e	0.8512
57	0x3f14a8c1	0.5807
58	0x3f7fdf3b	0.9995
59	0x3f71d7dc	0.9447
60	0x3c4985f0	0.0123
61	0x3f7faace	0.9987
62	0x3f1837b5	0.5946
63	0x3e87c84b	0.2652
64	0x3f32d773	0.6986
65	0x3cd1b717	0.0256
66	0x3e8bfb16	0.2734
67	0x3df03afb	0.1173
68	0x3f758106	0.959
69	0x3f7fa440	0.9986
70	0x3e7e9100	0.2486
71	0x3f675f70	0.9038
72	0x38d1b717	1e-04
73	0x3dd5cfab	0.1044
74	0x3f7d35a8	0.9891
75	0x3f320c4a	0.6955
76	0x3f275254	0.6536
77	0x3eb61134	0.3556
78	0x3d74f0d8	0.0598
79	0x3e7381d8	0.2378
80	0x3ed9ce07	0.4254
81	0x3ab78034	0.0014
82	0x3dacd9e8	0.0844
83	0x3f7ac711	0.9796
84	0x3f7d8adb	0.9904
85	0x3e81d7dc	0.2536
86	0x3f1e978d	0.6195
87	0x3f7e978d	0.9945
88	0x3f4e978d	0.807
89	0x3f7ff972	0.9999
90	0x3f2f06f7	0.6837
91	0x3f4339c1	0.7626
92	0x3eaa8c15	0.3331
93	0x3edab9f5	0.4272
94	0x3ed652bd	0.4186
95	0x3f72f1aa	0.949
96	0x3f6b573f	0.9193
97	0x3f7de00d	0.9917
98	0x3f4538ef	0.7704
99	0x3f6e5c92	0.9311
100	0x3d926e98	0.0715
101	0x3de631f9	0.1124
102	0x3ee2339c	0.4418
103	0x3f338ef3	0.7014
104	0x3f213405	0.6297
105	0x3f1fa440	0.6236
106	0x3d84816f	0.0647
107	0x3d6d9168	0.058
108	0x3da1ff2e	0.0791
109	0x3e86594b	0.2624
110	0x3f2b923a	0.6702
111	0x3f7f5c29	0.9975
112	0x3f4e83e4	0.8067
113	0x3f3b7e91	0.7324
114	0x3e817c1c	0.2529
115	0x3c56a162	0.0131
116	0x3f186c22	0.5954
117	0x3f7381d8	0.9512
118	0x3edb4a23	0.4283
119	0x3f27dbf5	0.6557
120	0x3ee13a93	0.4399
121	0x3f391687	0.723
122	0x3b2a64c3	0.0026
123	0x3e1a0275	0.1504
124	0x3b30f27c	0.0027
125	0x3c343958	0.011
126	0x3f7ff972	0.9999
127	0x3f44e3bd	0.7691
128	0x3ec5f06f	0.3866
129	0x3de703b0	0.1128
130	0x3f79999a	0.975
131	0x3f36e2eb	0.7144
132	0x3eb78034	0.3584
133	0x3e395810	0.181
134	0x3d8e2196	0.0694
135	0x3e83fe5d	0.2578
136	0x3e8f0d84	0.2794
137	0x3a51b717	0.0008
138	0x3f384b5e	0.7199
139	0x3f259b3d	0.6469
140	0x3f41b08a	0.7566
141	0x3f6786c2	0.9044
142	0x3dc46738	0.0959
143	0x3d0e8a72	0.0348
144	0x3f62c3ca	0.8858
145	0x3f638ef3	0.8889
146	0x3f7cb296	0.9871
147	0x3f632618	0.8873
148	0x3efa511a	0.4889
149	0x3f041206	0.5159
150	0x3f61d7dc	0.8822
151	0x3d401a37	0.0469
152	0x3f283127	0.657
153	0x3f56cf42	0.8391
154	0x3efa1cac	0.4885
155	0x3f7b573f	0.9818
156	0x3f5923a3	0.8482
157	0x3c11d14e	0.0089
158	0x3f0edfa4	0.5581
159	0x3d46a7f0	0.0485
160	0x3f2cd35b	0.6751
161	0x3f60d845	0.8783
162	0x3dbb98c8	0.0916
163	0x3f4d013b	0.8008
164	0x3a03126f	0.0005
165	0x3efe5c92	0.4968
166	0x3f777319	0.9666
167	0x3f6f0069	0.9336
168	0x3d896bba	0.0671
169	0x3efa6b51	0.4891
170	0x3f22d0e5	0.636
171	0x3f6a43fe	0.9151
172	0x3f34816f	0.7051
173	0x3e974bc7	0.2955
174	0x3df9a6b5	0.1219
175	0x3f648e8a	0.8928
176	0x3eac0831	0.336
177	0x3e486595	0.1957
178	0x3ccd9e84	0.0251
179	0x3f7b851f	0.9825
180	0x3b30f27c	0.0027
181	0x3d1e83e4	0.0387
182	0x3f6f62b7	0.9351
183	0x3f09374c	0.536
184	0x3ed52546	0.4163
185	0x3f5b98c8	0.8578
186	0x3f685879	0.9076
187	0x3e15182b	0.1456
188	0x3f18b439	0.5965
189	0x3ca2339c	0.0198
190	0x3f5b5dcc	0.8569
191	0x3d84b5dd	0.0648
192	0x3ece978d	0.4035
193	0x3f7ff972	0.9999
194	0x3e910cb3	0.2833
195	0x3f79e1b1	0.9761
196	0x3f66c227	0.9014
197	0x3f22e48f	0.6363
198	0x3f72f838	0.9491
199	0x3f58e8a7	0.8473
200	0x3d1ce076	0.0383
201	0x3ebcc63f	0.3687
202	0x3e55e9e2	0.2089
203	0x3ef3b646	0.476
204	0x3f1ac083	0.6045
205	0x3f7bc01a	0.9834
206	0x3f7ff972	0.9999
207	0x3d0adaba	0.0339
208	0x3f76b50b	0.9637
209	0x3f379a6b	0.7172
210	0x3f655326	0.8958
211	0x3f4ae7d5	0.7926
212	0x3eda92a3	0.4269
213	0x3ddd6388	0.1081
214	0x3d292a30	0.0413
215	0x3da2339c	0.0792
216	0x3f6f34d7	0.9344
217	0x3e49eecc	0.1972
218	0x3f7b923a	0.9827
219	0x3f2b1c43	0.6684
220	0x3f3b1c43	0.7309
221	0x3b2a64c3	0.0026
222	0x3f7374bc	0.951
223	0x3f76c8b4	0.964
224	0x3ebe00d2	0.3711
225	0x3f581062	0.844
226	0x3a6bedfa	0.0009
227	0x3f6dc5d6	0.9288
228	0x3f35b574	0.7098
229	0x3f546738	0.8297
230	0x3f7fec57	0.9997
231	0x3f5af4f1	0.8553
232	0x3f48c7e3	0.7843
233	0x3f5bc6a8	0.8585
234	0x3f10b0f2	0.5652
235	0x3f18a090	0.5962
236	0x3a6bedfa	0.0009
237	0x3c8c154d	0.0171
238	0x3e75c28f	0.24
239	0x3f5a8588	0.8536
240	0x3dc22681	0.0948
241	0x3f7b7176	0.9822
242	0x3f224745	0.6339
243	0x3eab923a	0.3351
244	0x3e70be0e	0.2351
245	0x3d7765fe	0.0604
246	0x3f7f4f0e	0.9973
247	0x3f4bd3c3	0.7962
248	0x3a1d4952	0.0006
249	0x3eb34d6a	0.3502
250	0x3f6e69ad	0.9313
251	0x3f028241	0.5098
252	0x3f7c9eed	0.9868
253	0x3ee7a0f9	0.4524
254	0x3d9eecc0	0.0776
255	0x3f7703b0	0.9649

y f4 [284]
0	0x3ec94467	0.3931
1	0x3e887fcc	0.2666
2	0x3f731f8a	0.9497
3	0x3f78a090	0.9712
4	0x3e92b021	0.2865
5	0x3ed013a9	0.4064
6	0x3e8e48e9	0.2779
7	0x3dc56d5d	0.0964
8	0x3eafb7e9	0.3432
9	0x3f104817	0.5636
10	0x3e14fdf4	0.1455
11	0x3f64ea4b	0.8942
12	0x3bef34d7	0.0073
13	0x3e850481	0.2598
14	0x3f369ad4	0.7133
15	0x3e276c8b	0.1635
16	0x3e0b7803	0.1362
17	0x3f45dcc6	0.7729
18	0x3f3295ea	0.6976
19	0x3f636e2f	0.8884
20	0x3f4902de	0.7852
21	0x3f59999a	0.85
22	0x3f6c56d6	0.9232
23	0x3f668db9	0.9006
24	0x3e86f694	0.2636
25	0x3ca71de7	0.0204
26	0x3f0da512	0.5533
27	0x3cc08312	0.0235
28	0x3f594af5	0.8488
29	0x3f7edfa4	0.9956
30	0x3ddfa440	0.1092
31	0x3d26b50b	0.0407
32	0x3f34c2f8	0.7061
33	0x3f63a29c	0.8892
34	0x3f6d844d	0.9278
35	0x3f14a8c1	0.5807
36	0x3f7fdf3b	0.9995
37	0x3f71d7dc	0.9447
38	0x3f7faace	0.9987
39	0x3f1837b5	0.5946
40	0x3e87c84b	0.2652
41	0x3f32d773	0.6986
42	0x3cd1b717	0.0256
43	0x3df03afb	0.1173
44	0x3f758106	0.959
45	0x3e7e9100	0.2486
46	0x38d1b717	1e-04
47	0x3dd5cfab	0.1044
48	0x3f320c4a	0.6955
49	0x3d74f0d8	0.0598
50	0x3ed9ce07	0.4254
51	0x3dacd9e8	0.0844
52	0x3f7ac711	0.9796
53	0x3f7d8adb	0.9904
54	0x3f1e978d	0.6195
55	0x3f7e978d	0.9945
56	0x3f2f06f7	0.6837
57	0x3eaa8c15	0.3331
58	0x3ed652bd	0.4186
59	0x3f7de00d	0.9917
60	0x3f6e5c92	0.9311
61	0x3de631f9	0.1124
62	0x3f338ef3	0.7014
63	0x3f213405	0.6297
64	0x3f1fa440	0.6236
65	0x3da1ff2e	0.0791
66	0x3e86594b	0.2624
67	0x3f2b923a	0.6702
68	0x3f7f5c29	0.9975
69	0x3c56a162	0.0131
70	0x3f186c22	0.5954
71	0x3f7381d8	0.9512
72	0x3edb4a23	0.4283
73	0x3ee13a93	0.4399
74	0x3f391687	0.723
75	0x3b2a64c3	0.0026
76	0x3c343958	0.011
77	0x3f7ff972	0.9999
78	0x3ec5f06f	0.3866
79	0x3de703b0	0.1128
80	0x3f36e2eb	0.7144
81	0x3eb78034	0.3584
82	0x3e395810	0.181
83	0x3d8e2196	0.0694
84	0x3e8f0d84	0.2794
85	0x3a51b717	0.0008
86	0x3f384b5e	0.7199
87	0x3f259b3d	0.6469
88	0x3f41b08a	0.7566
89	0x3f6786c2	0.9044
90	0x3f62c3ca	0.8858
91	0x3f7cb296	0.9871
92	0x3f632618	0.8873
93	0x3f283127	0.657
94	0x3f56cf42	0.8391
95	0x3efa1cac	0.4885
96	0x3f7b573f	0.9818
97	0x3c11d14e	0.0089
98	0x3f0edfa4	0.5581
99	0x3d46a7f0	0.0485
100	0x3f2cd35b	0.6751
101	0x3f60d845	0.8783
102	0x3dbb98c8	0.0916
103	0x3a03126f	0.0005
104	0x3efe5c92	0.4968
105	0x3f777319	0.9666
106	0x3efa6b51	0.4891
107	0x3f22d0e5	0.636
108	0x3f6a43fe	0.9151
109	0x3e974bc7	0.2955
110	0x3df9a6b5	0.1219
111	0x3eac0831	0.336
112	0x3e486595	0.1957
113	0x3ccd9e84	0.0251
114	0x3f7b851f	0.9825
115	0x3d1e83e4	0.0387
116	0x3f6f62b7	0.9351
117	0x3ed52546	0.4163
118	0x3f685879	0.9076
119	0x3e15182b	0.1456
120	0x3f18b439	0.5965
121	0x3ca2339c	0.0198
122	0x3f5b5dcc	0.8569
123	0x3ece978d	0.4035
124	0x3f7ff972	0.9999
125	0x3e910cb3	0.2833
126	0x3f79e1b1	0.9761
127	0x3f22e48f	0.6363
128	0x3f72f838	0.9491
129	0x3f58e8a7	0.8473
130	0x3ebcc63f	0.3687
131	0x3e55e9e2	0.2089
132	0x3f1ac083	0.6045
133	0x3f7bc01a	0.9834
134	0x3f7ff972	0.9999
135	0x3d0adaba	0.0339
136	0x3f76b50b	0.9637
137	0x3f655326	0.8958
138	0x3eda92a3	0.4269
139	0x3ddd6388	0.1081
140	0x3f6f34d7	0.9344
141	0x3e49eecc	0.1972
142	0x3f7b923a	0.9827
143	0x3f2b1c43	0.6684
144	0x3f3b1c43	0.7309
145	0x3b2a64c3	0.0026
146	0x3ebe00d2	0.3711
147	0x3a6bedfa	0.0009
148	0x3f35b574	0.7098
149	0x3f7fec57	0.9997
150	0x3f5bc6a8	0.8585
151	0x3e75c28f	0.24
152	0x3f5a8588	0.8536
153	0x3dc22681	0.0948
154	0x3f7b7176	0.9822
155	0x3eab923a	0.3351
156	0x3e70be0e	0.2351
157	0x3d7765fe	0.0604
158	0x3a1d4952	0.0006
159	0x3f6e69ad	0.9313
160	0x3ee7a0f9	0.4524
161	0x3d9eecc0	0.0776
162	0x3f7f8a09	0.9982
163	0x3e444d01	0.1917
164	0x3f010625	0.504
165	0x3f44af4f	0.7683
166	0x3a51b717	0.0008
167	0x3ebaacda	0.3646
168	0x3f6fcb92	0.9367
169	0x3f5b2fec	0.8562
170	0x3ed6872b	0.419
171	0x3f158106	0.584
172	0x3ef3404f	0.4751
173	0x3e7afb7f	0.2451
174	0x3efa5e35	0.489
175	0x3c87fcb9	0.0166
176	0x3e1a6b51	0.1508
177	0x38d1b717	1e-04
178	0x3f72e48f	0.9488
179	0x3ef07c85	0.4697
180	0x3c1ba5e3	0.0095
181	0x3f0bc6a8	0.546
182	0x3ed06f69	0.4071
183	0x3eae5604	0.3405
184	0x3e1dcc64	0.1541
185	0x3f3b15b5	0.7308
186	0x3c1a0275	0.0094
187	0x3d123a2a	0.0357
188	0x3e8b50b1	0.2721
189	0x3dbbcd36	0.0917
190	0x3f701a37	0.9379
191	0x3f77a0f9	0.9673
192	0x3eda0275	0.4258
193	0x3e8a64c3	0.2703
194	0x3f7faace	0.9987
195	0x3f64e3bd	0.8941
196	0x3f7e1b09	0.9926
197	0x3f26bb99	0.6513
198	0x3e4e3bcd	0.2014
199	0x3c0b4396	0.0085
200	0x3eebd3c3	0.4606
201	0x3f7ff972	0.9999
202	0x3f2fb7e9	0.6864
203	0x3eba1cac	0.3635
204	0x3f796bba	0.9743
205	0x3f608312	0.877
206	0x3f203afb	0.6259
207	0x3d82a993	0.0638
208	0x3e819653	0.2531
209	0x3ec4dd2f	0.3845
210	0x3f0ca57a	0.5494
211	0x3efdd97f	0.4958
212	0x3f4902de	0.7852
213	0x3f253f7d	0.6455
214	0x3f23f7cf	0.6405
215	0x3c9d4952	0.0192
216	0x3ee6809d	0.4502
217	0x3e8c154d	0.2736
218	0x3d1ad42c	0.0378
219	0x3f7930be	0.9734
220	0x3f4d013b	0.8008
221	0x3f169ad4	0.5883
222	0x3f25fd8b	0.6484
223	0x3f4d6388	0.8023
224	0x3f1ac711	0.6046
225	0x3f68f5c3	0.91
226	0x3f243fe6	0.6416
227	0x3e0a71de	0.1352
228	0x3f489375	0.7835
229	0x3c944674	0.0181
230	0x3f58ef35	0.8474
231	0x3f73e426	0.9527
232	0x3ed47ae1	0.415
233	0x3f603afb	0.8759
234	0x3a03126f	0.0005
235	0x3d1930be	0.0374
236	0x3f11e4f7	0.5699
237	0x3f7f4f0e	0.9973
238	0x3f5d844d	0.8653
239	0x3ef78034	0.4834
240	0x3c04b5dd	0.0081
241	0x3ec1cac1	0.3785
242	0x3f477319	0.7791
243	0x3e92a305	0.2864
244	0x3e946dc6	0.2899
245	0x3d6d9168	0.058
246	0x3e70f27c	0.2353
247	0x3f47381d	0.7782
248	0x3ef94af5	0.4869
249	0x3edfbe77	0.437
250	0x3f79930c	0.9749
251	0x3ec5e354	0.3865
252	0x3c7c5048	0.0154
253	0x3f23c9ef	0.6398
254	0x3e305532	0.1722
255	0x3d4779a7	0.0487

edge_weight f4 [260, 1]
0	0x3f800000	1.0
1	0x3f800000	1.0
2	0x3f800000	1.0
3	0xbf800000	-1.0
4	0xbf800000	-1.0
5	0xbf800000	-1.0
6	0xbf800000	-1.0
7	0xbf800000	-1.0
8	0x3f800000	1.0
9	0x3f800000	1.0
10	0x3f800000	1.0
11	0xbf800000	-1.0
12	0xbf800000	-1.0
13	0x3f800000	1.0
14	0x3f800000	1.0
15	0xbf800000	-1.0
16	0x3f800000	1.0
17	0x3f800000	1.0
18	0xbf800000	-1.0
19	0x3f800000	1.0
20	0x3f800000	1.0
21	0x3f800000	1.0
22	0x3f800000	1.0
23	0xbf800000	-1.0
24	0xbf800000	-1.0
25	0x3f800000	1.0
26	0xbf800000	-1.0
27	0x3f800000	1.0
28	0x3f800000	1.0
29	0xbf800000	-1.0
30	0x3f800000	1.0
31	0xbf800000	-1.0
32	0xbf800000	-1.0
33	0xbf800000	-1.0
34	0xbf800000	-1.0
35	0xbf800000	-1.0
36	0x3f800000	1.0
37	0x3f800000	1.0
38	0x3f800000	1.0
39	0xbf800000	-1.0
40	0x3f800000	1.0
41	0xbf800000	-1.0
42	0x3f800000	1.0
43	0x3f800000	1.0
44	0x3f800000	1.0
45	0x3f800000	1.0
46	0x3f800000	1.0
47	0x3f800000	1.0
48	0xbf800000	-1.0
49	0xbf800000	-1.0
50	0x3f800000	1.0
51	0xbf800000	-1.0
52	0xbf800000	-1.0
53	0xbf800000	-1.0
54	0x3f800000	1.0
55	0x3f800000	1.0
56	0x3f800000	1.0
57	0x3f800000	1.0
58	0x3f800000	1.0
59	0xbf800000	-1.0
60	0xbf800000	-1.0
61	0xbf800000	-1.0
62	0x3f800000	1.0
63	0x3f800000	1.0
64	0x3f800000	1.0
65	0xbf800000	-1.0
66	0xbf800000	-1.0
67	0x3f800000	1.0
68	0x3f800000	1.0
69	0xbf800000	-1.0
70	0x3f800000	1.0
71	0xbf800000	-1.0
72	0x3f800000	1.0
73	0x3f800000	1.0
74	0xbf800000	-1.0
75	0xbf800000	-1.0
76	0xbf800000	-1.0
77	0x3f800000	1.0
78	0x3f800000	1.0
79	0xbf800000	-1.0
80	0x3f800000	1.0
81	0x3f800000	1.0
82	0xbf800000	-1.0
83	0x3f800000	1.0
84	0xbf800000	-1.0
85	0xbf800000	-1.0
86	0x3f800000	1.0
87	0x3f800000	1.0
88	0x3f800000	1.0
89	0x3f800000	1.0
90	0x3f800000	1.0
91	0xbf800000	-1.0
92	0x3f800000	1.0
93	0xbf800000	-1.0
94	0xbf800000	-1.0
95	0xbf800000	-1.0
96	0xbf800000	-1.0
97	0x3f800000	1.0
98	0xbf800000	-1.0
99	0x3f800000	1.0
100	0xbf800000	-1.0
101	0x3f800000	1.0
102	0x3f800000	1.0
103	0x3f800000	1.0
104	0x3f800000	1.0
105	0xbf800000	-1.0
106	0x3f800000	1.0
107	0xbf800000	-1.0
108	0xbf800000	-1.0
109	0xbf800000	-1.0
110	0x3f800000	1.0
111	0x3f800000	1.0
112	0xbf800000	-1.0
113	0x3f800000	1.0
114	0xbf800000	-1.0
115	0x3f800000	1.0
116	0xbf800000	-1.0
117	0x3f800000	1.0
118	0xbf800000	-1.0
119	0xbf800000	-1.0
120	0xbf800000	-1.0
121	0x3f800000	1.0
122	0x3f800000	1.0
123	0xbf800000	-1.0
124	0xbf800000	-1.0
125	0x3f800000	1.0
126	0x3f800000	1.0
127	0xbf800000	-1.0
128	0xbf800000	-1.0
129	0xbf800000	-1.0
130	0xbf800000	-1.0
131	0xbf800000	-1.0
132	0xbf800000	-1.0
133	0x3f800000	1.0
134	0xbf800000	-1.0
135	0x3f800000	1.0
136	0x3f800000	1.0
137	0xbf800000	-1.0
138	0x3f800000	1.0
139	0xbf800000	-1.0
140	0x3f800000	1.0
141	0x3f800000	1.0
142	0x3f800000	1.0
143	0x3f800000	1.0
144	0x3f800000	1.0
145	0xbf800000	-1.0
146	0xbf800000	-1.0
147	0xbf800000	-1.0
148	0x3f800000	1.0
149	0x3f800000	1.0
150	0xbf800000	-1.0
151	0x3f800000	1.0
152	0x3f800000	1.0
153	0x3f800000	1.0
154	0x3f800000	1.0
155	0xbf800000	-1.0
156	0xbf800000	-1.0
157	0xbf800000	-1.0
158	0xbf800000	-1.0
159	0x3f800000	1.0
160	0xbf800000	-1.0
161	0x3f800000	1.0
162	0xbf800000	-1.0
163	0x3f800000	1.0
164	0xbf800000	-1.0
165	0x3f800000	1.0
166	0x3f800000	1.0
167	0x3f800000	1.0
168	0xbf800000	-1.0
169	0x3f800000	1.0
170	0xbf800000	-1.0
171	0x3f800000	1.0
172	0x3f800000	1.0
173	0xbf800000	-1.0
174	0xbf800000	-1.0
175	0x3f800000	1.0
176	0x3f800000	1.0
177	0xbf800000	-1.0
178	0xbf800000	-1.0
179	0x3f800000	1.0
180	0xbf800000	-1.0
181	0x3f800000	1.0
182	0x3f800000	1.0
183	0x3f800000	1.0
184	0xbf800000	-1.0
185	0xbf800000	-1.0
186	0x3f800000	1.0
187	0x3f800000	1.0
188	0x3f800000	1.0
189	0x3f800000	1.0
190	0x3f800000	1.0
191	0x3f800000	1.0
192	0x3f800000	1.0
193	0xbf800000	-1.0
194	0x3f800000	1.0
195	0xbf800000	-1.0
196	0xbf800000	-1.0
197	0x3f800000	1.0
198	0x3f800000	1.0
199	0x3f800000	1.0
200	0x3f800000	1.0
201	0xbf800000	-1.0
202	0xbf800000	-1.0
203	0xbf800000	-1.0
204	0x3f800000	1.0
205	0xbf800000	-1.0
206	0x3f800000	1.0
207	0xbf800000	-1.0
208	0xbf800000	-1.0
209	0x3f800000	1.0
210	0xbf800000	-1.0
211	0x3f800000	1.0
212	0x3f800000	1.0
213	0x3f800000	1.0
214	0xbf800000	-1.0
215	0xbf800000	-1.0
216	0x3f800000	1.0
217	0xbf800000	-1.0
218	0xbf800000	-1.0
219	0x3f800000	1.0
220	0x3f800000	1.0
221	0xbf800000	-1.0
222	0x3f800000	1.0
223	0x3f800000	1.0
224	0x3f800000	1.0
225	0xbf800000	-1.0
226	0x3f800000	1.0
227	0x3f800000	1.0
228	0xbf800000	-1.0
229	0xbf800000	-1.0
230	0xbf800000	-1.0
231	0x3f800000	1.0
232	0xbf800000	-1.0
233	0xbf800000	-1.0
234	0xbf800000	-1.0
235	0x3f800000	1.0
236	0xbf800000	-1.0
237	0x3f800000	1.0
238	0x3f800000	1.0
239	0x3f800000	1.0
240	0x3f800000	1.0
241	0xbf800000	-1.0
242	0xbf800000	-1.0
243	0x3f800000	1.0
244	0xbf800000	-1.0
245	0x3f800000	1.0
246	0xbf800000	-1.0
247	0xbf800000	-1.0
248	0x3f800000	1.0
249	0xbf800000	-1.0
250	0x3f800000	1.0
251	0xbf800000	-1.0
252	0x3f800000	1.0
253	0xbf800000	-1.0
254	0xbf800000	-1.0
255	0xbf800000	-1.0
